onnx_models/ic_quantized_int8_split.onnx (onnx, 203350 bytes, 33 tensors)

onnx::Conv_78_quantized i1 [16, 3, 3, 3]
000000 ed e7 bf 0a 21 f2 1c 34 17 ae c2 a1 dc 10 e4 db
       -19 -25 -65 10 33 -14 28 52 23 -82 -62 -95 -36 16 -28 -37
000010 ff e4 fa 0b e3 4e 7f 53 16 29 1e 81 1b 06 c8 5b
       -1 -28 -6 11 -29 78 127 83 22 41 30 -127 27 6 -56 91
000020 f5 14 27 c8 97 20 e5 e8 52 de 32 33 cd 87 23 fb
       -11 20 39 -56 -105 32 -27 -24 82 -34 50 51 -51 -121 35 -5
000030 c5 3c d7 05 08 d1 35 f2 9f 3f cb f0 ed 81 e6 59
       -59 60 -41 5 8 -47 53 -14 -97 63 -53 -16 -19 -127 -26 89
000040 46 1e 4f 19 61 32 ca 46 0e 2f 1d 3e 18 6b 12 cf
       70 30 79 25 97 50 -54 70 14 47 29 62 24 107 18 -49
000050 39 79 64 d5 73 ce 90 26 c1 9e f4 fa fa ed 99 f6
       57 121 100 -43 115 -50 -112 38 -63 -98 -12 -6 -6 -19 -103 -10
000060 3d 19 34 a0 f8 24 81 b6 4c f1 34 7a 32 27 35 42
       61 25 52 -96 -8 36 -127 -74 76 -15 52 122 50 39 53 66
000070 fd fd f2 95 c5 30 2e 36 4c f9 e8 f7 87 a0 12 39
       -3 -3 -14 -107 -59 48 46 54 76 -7 -24 -9 -121 -96 18 57
000080 53 3d 08 f8 f8 81 a0 1d bd 46 17 81 1a 6e d1 bf
       83 61 8 -8 -8 -127 -96 29 -67 70 23 -127 26 110 -47 -65
000090 05 b3 24 fa 9a 25 37 cf d3 0d c8 22 dd ae 2b 04
       5 -77 36 -6 -102 37 55 -49 -45 13 -56 34 -35 -82 43 4
0000a0 dc ef ef d8 e2 ef db e2 ef db 04 0d 44 12 41 7f
       -36 -17 -17 -40 -30 -17 -37 -30 -17 -37 4 13 68 18 65 127
0000b0 30 10 27 03 de d5 f4 fa f2 0a ec d4 fa c4 b1 ee
       48 16 39 3 -34 -43 -12 -6 -14 10 -20 -44 -6 -60 -79 -18
0000c0 c7 a4 f3 53 7f 67 f4 db ec dc b4 d7 3d 5b 3d e8
       -57 -92 -13 83 127 103 -12 -37 -20 -36 -76 -41 61 91 61 -24
0000d0 eb fb c7 bd e2 26 4f 4c 42 7f 38 08 47 f8 f1 1b
       -21 -5 -57 -67 -30 38 79 76 66 127 56 8 71 -8 -15 27
0000e0 d7 ed eb f2 c7 dc dd f5 33 22 01 f6 ec e2 eb cd
       -41 -19 -21 -14 -57 -36 -35 -11 51 34 1 -10 -20 -30 -21 -51
0000f0 16 3d f8 0b db eb bf 81 8e f6 ba ce 35 4b 27 fc
       22 61 -8 11 -37 -21 -65 -127 -114 -10 -70 -50 53 75 39 -4

onnx::Conv_78_scale f4 [16]
000000 ca 75 a5 3a 29 fa 25 3b 46 80 5f 3a 50 96 3e 3b
       0.0012623605 0.002532611 0.0008525889 0.0029081292
000010 47 51 a6 3a 7a e4 cb 3a 5d c3 81 3b 71 05 70 3a
       0.0012689017 0.0015555762 0.0039600567 0.0009156084
000020 86 dc cf 3a 93 59 a6 3a 0f cc ad 3a d2 89 ec 3b
       0.0015858568 0.001269149 0.0013259667 0.007218578
000030 05 bf f7 3a 4c dd f8 3a 0e 60 21 3b 77 f0 0d 3b
       0.0018901533 0.001898685 0.0024623903 0.002165822

onnx::Conv_81_quantized i1 [16, 16, 3, 3]
000000 09 00 04 ef f3 01 f9 f9 f7 f0 ee e6 03 fc d5 f4
       9 0 4 -17 -13 1 -7 -7 -9 -16 -18 -26 3 -4 -43 -12
000010 d2 1a e9 04 fc ef 0f 07 09 0a 06 f4 df f1 01 12
       -46 26 -23 4 -4 -17 15 7 9 10 6 -12 -33 -15 1 18
000020 f0 28 eb f4 d6 d6 dc 0e 26 0e ee 06 da eb c5 f3
       -16 40 -21 -12 -42 -42 -36 14 38 14 -18 6 -38 -21 -59 -13
000030 fa eb f7 ff f2 09 00 07 0b 10 ec f1 02 e7 fe ea
       -6 -21 -9 -1 -14 9 0 7 11 16 -20 -15 2 -25 -2 -22
000040 d8 e6 f7 fe 0c fb fc 24 1e 18 13 07 0b 0c ea d7
       -40 -26 -9 -2 12 -5 -4 36 30 24 19 7 11 12 -22 -41
000050 f5 16 00 f6 1b 08 02 08 e7 f5 05 09 1f ee 06 48
       -11 22 0 -10 27 8 2 8 -25 -11 5 9 31 -18 6 72
000060 12 15 18 ed 38 f8 60 81 17 2c c5 17 f1 f6 f2 11
       18 21 24 -19 56 -8 96 -127 23 44 -59 23 -15 -10 -14 17
000070 cc ef 21 05 0f 06 fe ff fa fd 09 f3 f8 fd 09 fe
       -52 -17 33 5 15 6 -2 -1 -6 -3 9 -13 -8 -3 9 -2
000080 ea bb fe 17 d3 17 d7 ff f0 fd e6 07 19 e0 14 08
       -22 -69 -2 23 -45 23 -41 -1 -16 -3 -26 7 25 -32 20 8
000090 02 fe e6 0b 0d 1b fb f8 13 f5 f7 f9 f3 ed 01 e3
       2 -2 -26 11 13 27 -5 -8 19 -11 -9 -7 -13 -19 1 -29
0000a0 09 02 0d f2 f5 06 fe 04 03 07 12 ef f3 03 22 13
       9 2 13 -14 -11 6 -2 4 3 7 18 -17 -13 3 34 19
0000b0 0b f9 24 10 00 03 ee 00 fa 02 0d ea 14 ec f9 e0
       11 -7 36 16 0 3 -18 0 -6 2 13 -22 20 -20 -7 -32
0000c0 f9 04 ef ee 0a e6 0c f7 f8 03 0d 24 00 df d0 13
       -7 4 -17 -18 10 -26 12 -9 -8 3 13 36 0 -33 -48 19
0000d0 00 15 19 e9 e9 fe 01 f8 f6 e6 02 06 ef e5 fc 05
       0 21 25 -23 -23 -2 1 -8 -10 -26 2 6 -17 -27 -4 5
0000e0 eb e5 15 36 ce 0a 22 bb f2 1f 14 fe e7 12 0a f0
       -21 -27 21 54 -50 10 34 -69 -14 31 20 -2 -25 18 10 -16
0000f0 ed ea f5 20 db 05 81 3b ea 46 18 d7 e3 f6 f6 d1
       -19 -22 -11 32 -37 5 -127 59 -22 70 24 -41 -29 -10 -10 -47

onnx::Conv_81_scale f4 [16]
000000 47 f3 f9 3b 3d e3 ed 3b e3 10 12 3c 6d 1a 23 3c
       0.007627878 0.007259755 0.008915159 0.009955031
000010 bb 1c 86 3b 8d 27 cd 3b 36 bf c2 3b b4 5a 9b 3b
       0.0040927804 0.0062608183 0.0059432043 0.0047410373
000020 10 35 5c 3b ae a3 a4 3b ef aa 4a 3b 0d 55 bf 3b
       0.0033600964 0.005024395 0.0030924638 0.0058389963
000030 44 61 6b 3b 2a dc 8d 3b 11 b1 70 3b 21 f6 62 3b
       0.003591613 0.004329224 0.0036726634 0.0034631568

onnx::Conv_84_quantized i1 [16, 16, 3, 3]
000000 ca 11 0c 0d e8 0e 20 06 00 ed e3 fc 21 f3 e7 2e
       -54 17 12 13 -24 14 32 6 0 -19 -29 -4 33 -13 -25 46
000010 0a 00 26 12 df f3 e1 1b 20 f0 08 45 06 15 31 1e
       10 0 38 18 -33 -13 -31 27 32 -16 8 69 6 21 49 30
000020 42 13 dd 0d 9b e2 fb 9e c7 f7 b5 bb c3 25 02 d5
       66 19 -35 13 -101 -30 -5 -98 -57 -9 -75 -69 -61 37 2 -43
000030 29 f1 c6 ca e0 db 1e 3d 40 c2 e0 cf d2 fb e0 1c
       41 -15 -58 -54 -32 -37 30 61 64 -62 -32 -49 -46 -5 -32 28
000040 07 3e 20 04 00 1f 2d 10 1e 1f 29 10 fc 22 0d 02
       7 62 32 4 0 31 45 16 30 31 41 16 -4 34 13 2
000050 07 15 fe 21 e8 d5 d9 ef fd 09 e8 d8 92 b3 a6 8c
       7 21 -2 33 -24 -43 -39 -17 -3 9 -24 -40 -110 -77 -90 -116
000060 81 ab a3 f4 16 51 06 51 20 ca ca 0e 03 f1 d7 34
       -127 -85 -93 -12 22 81 6 81 32 -54 -54 14 3 -15 -41 52
000070 25 2b 36 0a 24 d4 f0 fe f7 da 01 12 17 1a 09 23
       37 43 54 10 36 -44 -16 -2 -9 -38 1 18 23 26 9 35
000080 19 1b 21 24 ed 08 ec de 04 2b 99 b8 07 c2 a6 a1
       25 27 33 36 -19 8 -20 -34 4 43 -103 -72 7 -62 -90 -95
000090 0e 09 27 c1 31 4e 29 1d 18 13 2c 08 3a 00 da e4
       14 9 39 -63 49 78 41 29 24 19 44 8 58 0 -38 -28
0000a0 cd 4e 05 ea d8 0a ef 16 2e 2d 27 a9 eb 03 d8 d9
       -51 78 5 -22 -40 10 -17 22 46 45 39 -87 -21 3 -40 -39
0000b0 1b 0d 0f 01 48 eb a6 19 f9 f8 e7 ec c7 f8 ca 12
       27 13 15 1 72 -21 -90 25 -7 -8 -25 -20 -57 -8 -54 18
0000c0 cd e0 34 14 45 54 b9 9e a6 48 0f 3f 2f 71 7f b1
       -51 -32 52 20 69 84 -71 -98 -90 72 15 63 47 113 127 -79
0000d0 17 1b fe 6e f3 13 ee cc df b7 18 34 4f 18 41 4c
       23 27 -2 110 -13 19 -18 -52 -33 -73 24 52 79 24 65 76
0000e0 f4 fc d0 c9 cd db 04 8e 77 6a f0 cb ee a9 f7 37
       -12 -4 -48 -55 -51 -37 4 -114 119 106 -16 -53 -18 -87 -9 55
0000f0 a1 1f 36 bd f8 ed 0d 0f ec 15 1c 27 e5 18 1c 0a
       -95 31 54 -67 -8 -19 13 15 -20 21 28 39 -27 24 28 10

onnx::Conv_84_scale f4 [16]
000000 52 83 c3 3a 00 75 c1 3a b4 bf ef 3a 17 a4 b7 3a
       0.0014916456 0.00147596 0.0018291385 0.0014010695
000010 31 7b c0 3a 49 df e3 3a 0f c1 48 3b 31 7b 05 3b
       0.0014685151 0.001738527 0.003063265 0.0020367617
000020 37 97 19 3b 30 c4 ac 3a 16 7a d8 3a 31 39 32 3b
       0.0023436078 0.0013181027 0.0016515877 0.0027194733
000030 54 1f ea 3a ed 5f 3c 3b aa f3 e9 3a ef c8 fa 3a
       0.001786212 0.00287437 0.0017849107 0.0019133369

onnx::Conv_87_quantized i1 [32, 16, 3, 3]
000000 11 0a 17 0c ff 07 f0 e8 c8 11 ff e8 32 10 e6 f8
       17 10 23 12 -1 7 -16 -24 -56 17 -1 -24 50 16 -26 -8
000010 e6 db cd f5 c5 be df d1 e1 0b 1f 01 c7 9a 37 d8
       -26 -37 -51 -11 -59 -66 -33 -47 -31 11 31 1 -57 -102 55 -40
000020 a9 2f df bf ea be c6 b8 93 a6 d4 a5 85 00 05 1d
       -87 47 -33 -65 -22 -66 -58 -72 -109 -90 -44 -91 -123 0 5 29
000030 30 22 0d 4e 2c 17 0a 24 f7 f9 2a 11 cb 0c 02 f8
       48 34 13 78 44 23 10 36 -9 -7 42 17 -53 12 2 -8
000040 c9 ba f1 b3 81 17 d2 cc f7 ac ca cc a5 c2 c7 b2
       -55 -70 -15 -77 -127 23 -46 -52 -9 -84 -54 -52 -91 -62 -57 -78
000050 c2 e8 f3 11 d6 03 1b d9 0e 25 ee 0e 30 e2 f4 1b
       -62 -24 -13 17 -42 3 27 -39 14 37 -18 14 48 -30 -12 27
000060 e6 e2 f0 25 22 ff 21 2c 15 1b 1f 0b 16 f3 02 df
       -26 -30 -16 37 34 -1 33 44 21 27 31 11 22 -13 2 -33
000070 fb 15 f5 14 19 43 2b e3 67 6a fd 2e 53 29 09 1d
       -5 21 -11 20 25 67 43 -29 103 106 -3 46 83 41 9 29
000080 0f f1 de e1 11 d3 c5 a3 c0 2d 9b ac e8 c2 9b cd
       15 -15 -34 -31 17 -45 -59 -93 -64 45 -101 -84 -24 -62 -101 -51
000090 f0 e9 f3 08 f9 08 12 e6 ef ea ff 0e e9 ee 0b f7
       -16 -23 -13 8 -7 8 18 -26 -17 -22 -1 14 -23 -18 11 -9
0000a0 02 f6 ef de f8 fa ed 03 23 0e 1c fd fc f9 f6 0d
       2 -10 -17 -34 -8 -6 -19 3 35 14 28 -3 -4 -7 -10 13
0000b0 25 25 33 22 0c 07 fa 19 26 33 f5 17 17 d9 ce b6
       37 37 51 34 12 7 -6 25 38 51 -11 23 23 -39 -50 -74
0000c0 ad af a8 ac c6 db ed e6 f2 f6 eb f4 08 f1 e6 fe
       -83 -81 -88 -84 -58 -37 -19 -26 -14 -10 -21 -12 8 -15 -26 -2
0000d0 ff fc 01 f6 12 f1 00 17 e2 ee ea c6 dc f4 cb ee
       -1 -4 1 -10 18 -15 0 23 -30 -18 -22 -58 -36 -12 -53 -18
0000e0 fd 05 f1 f3 31 18 1d f3 d2 e4 fb 08 14 fd f0 f5
       -3 5 -15 -13 49 24 29 -13 -46 -28 -5 8 20 -3 -16 -11
0000f0 f7 dd f0 ca 93 9a ab 81 ad c2 aa f4 cf 94 a6 ba
       -9 -35 -16 -54 -109 -102 -85 -127 -83 -62 -86 -12 -49 -108 -90 -70

onnx::Conv_87_scale f4 [32]
000000 8c 14 f8 3a 98 95 4f 3b 73 e6 e7 3a 7a 8e 15 3b
       0.0018927022 0.0031674858 0.0017692581 0.0022820518
000010 6a 12 10 3b e8 57 1d 3b b2 56 e4 3a 38 ca db 3a
       0.0021983632 0.0024008695 0.0017420857 0.001676864
000020 cc d6 18 3b 36 fb 29 3b 62 02 98 3b b3 a4 2d 3b
       0.0023321388 0.0025937087 0.004638956 0.0026495873
000030 16 d9 01 3b 22 ab 27 3b 35 37 20 3b ba df 20 3b
       0.0019813231 0.002558418 0.0024446968 0.0024547414
000040 0d 6b 5d 3b ef ea de 3a 84 ab 4a 3b 2f 87 42 3b
       0.003378573 0.0017007272 0.0030924985 0.0029682626
000050 fe 4d a5 3a 1f 3c e3 3a af 8c f1 3a f4 bc 16 3b
       0.0012611744 0.0017336643 0.0018428768 0.0023000808
000060 67 ef 44 3b f0 2c 26 3b 20 8f f5 3a 5d a4 6a 3b
       0.0030049921 0.0025356375 0.0018734671 0.0035803535
000070 ab bb 81 3b ae 10 1f 3b dd 42 3c 3b 18 35 c0 3a
       0.0039591393 0.0024271416 0.0028726377 0.0014664261

features.1.conv_for_stride.weight_quantized i1 [32, 16, 3, 3]
000000 ac c9 bd ad cb 99 f2 f0 ee d7 d2 ed f5 fb 0e 67
       -84 -55 -67 -83 -53 -103 -14 -16 -18 -41 -46 -19 -11 -5 14 103
000010 34 09 0f 0d 3d f4 e3 00 df f0 d6 f5 fc 2b 1a 2b
       52 9 15 13 61 -12 -29 0 -33 -16 -42 -11 -4 43 26 43
000020 2e e0 09 24 b4 ce 0f b9 95 ad d3 d5 fc b2 e1 b1
       46 -32 9 36 -76 -50 15 -71 -107 -83 -45 -43 -4 -78 -31 -79
000030 11 38 29 15 3d 58 30 07 1e 14 ec eb 15 13 01 1b
       17 56 41 21 61 88 48 7 30 20 -20 -21 21 19 1 27
000040 03 2a 67 6a 2e 72 7a 67 b5 b6 cf dc cc e5 e8 fb
       3 42 103 106 46 114 122 103 -75 -74 -49 -36 -52 -27 -24 -5
000050 0f 37 18 28 c9 92 b5 bc a1 8b 81 8b 86 c7 89 aa
       15 55 24 40 -55 -110 -75 -68 -95 -117 -127 -117 -122 -57 -119 -86
000060 02 14 22 e5 b0 c6 03 12 e8 2d 51 15 e1 da d7 e1
       2 20 34 -27 -80 -58 3 18 -24 45 81 21 -31 -38 -41 -31
000070 c9 e1 2e d5 ef d2 b1 cd 00 11 3a 27 4d 32 b8 81
       -55 -31 46 -43 -17 -46 -79 -51 0 17 58 39 77 50 -72 -127
000080 b9 d1 cb ca 10 14 ff ea fa 4b f4 d2 ed d2 e6 cb
       -71 -47 -53 -54 16 20 -1 -22 -6 75 -12 -46 -19 -46 -26 -53
000090 d9 0f 28 cb 00 12 c0 d7 12 e9 22 3a 0b 1d 3e eb
       -39 15 40 -53 0 18 -64 -41 18 -23 34 58 11 29 62 -21
0000a0 01 22 09 06 17 10 ee f1 fd c9 c3 21 1f ff ef f2
       1 34 9 6 23 16 -18 -15 -3 -55 -61 33 31 -1 -17 -14
0000b0 ad 12 1d fe eb f0 c6 b2 eb b4 bd e9 99 23 33 56
       -83 18 29 -2 -21 -16 -58 -78 -21 -76 -67 -23 -103 35 51 86
0000c0 15 c5 f8 ee bb d5 39 0e 22 1f 02 28 f0 d7 fb df
       21 -59 -8 -18 -69 -43 57 14 34 31 2 40 -16 -41 -5 -33
0000d0 20 51 ff 47 4e e7 0b 07 15 2c 31 4c 41 23 25 34
       32 81 -1 71 78 -25 11 7 21 44 49 76 65 35 37 52
0000e0 0e 34 ea f3 07 c6 d1 28 f4 dd 28 2d 3e 2e 1a 0b
       14 52 -22 -13 7 -58 -47 40 -12 -35 40 45 62 46 26 11
0000f0 32 11 f9 0a 21 25 eb f3 01 cb d2 be d8 e2 f3 c4
       50 17 -7 10 33 37 -21 -13 1 -53 -46 -66 -40 -30 -13 -60

features.1.conv_for_stride.weight_scale f4 [32]
000000 4f 73 1b 3b fa 8d 1e 3b 7d 96 5d 3b a5 fc 55 3b
       0.0023719852 0.0024193511 0.0033811622 0.0032651809
000010 2e c9 88 3b 72 36 25 3b b7 6f 16 3b 97 8a 6f 3b
       0.004174373 0.0025209454 0.002295477 0.0036551112
000020 68 ff 8b 3b bb 71 4c 3b 36 91 2d 3b ac c8 73 3b
       0.00427239 0.0031195718 0.0026484258 0.0037198467
000030 a0 ff 19 3b a7 93 29 3b a2 aa 2f 3b b9 b6 68 3b
       0.0023498312 0.0025875361 0.0026804586 0.0035509302
000040 d8 b7 80 3b 74 0e 60 3b ea 26 0c 3b 1d 4a 8b 3b
       0.003928166 0.0034188302 0.00213855 0.0042507784
000050 b3 eb 9a 3b b9 17 32 3b 33 dd 6b 3b 7e a5 0a 3b
       0.0047278046 0.0027174784 0.003599 0.002115577
000060 74 81 89 3b 4b 4a 0f 3b e7 5f 5d 3b 23 3f 2d 3b
       0.00419634 0.002186435 0.0033779086 0.0026435337
000070 4a f2 61 3b 33 3b 64 3b 44 aa 42 3b 10 07 3d 3b
       0.003447669 0.0034825325 0.0029703537 0.002884332

onnx::Conv_90_quantized i1 [32, 32, 3, 3]
000000 13 0d e1 fb fd df 33 f2 f4 cd dd e7 db fa ff 08
       19 13 -31 -5 -3 -33 51 -14 -12 -51 -35 -25 -37 -6 -1 8
000010 22 0e f2 01 07 f5 e8 fb ed f5 df 0a 0c 01 0e 0f
       34 14 -14 1 7 -11 -24 -5 -19 -11 -33 10 12 1 14 15
000020 e9 0b 2b 26 f9 06 02 eb 03 19 df 27 54 e8 04 f2
       -23 11 43 38 -7 6 2 -21 3 25 -33 39 84 -24 4 -14
000030 05 f5 09 2f 0e f6 00 23 31 07 ff 11 17 08 dc 02
       5 -11 9 47 14 -10 0 35 49 7 -1 17 23 8 -36 2
000040 03 07 28 02 fe 02 dc dd 10 fc e3 1a 21 fa 3f 2c
       3 7 40 2 -2 2 -36 -35 16 -4 -29 26 33 -6 63 44
000050 06 f7 ec e8 1a 26 21 fe 02 37 55 48 7f d1 c3 d3
       6 -9 -20 -24 26 38 33 -2 2 55 85 72 127 -47 -61 -45
000060 ee e9 c8 06 e3 f4 18 fe fa 02 15 2f cb a3 e9 27
       -18 -23 -56 6 -29 -12 24 -2 -6 2 21 47 -53 -93 -23 39
000070 16 19 2b 16 15 01 e4 17 1b 01 2f ff fc fb 31 29
       22 25 43 22 21 1 -28 23 27 1 47 -1 -4 -5 49 41
000080 08 26 12 e5 09 f2 e7 10 06 f6 d2 cb e1 10 07 ef
       8 38 18 -27 9 -14 -25 16 6 -10 -46 -53 -31 16 7 -17
000090 08 f0 0f fb ff 16 eb e7 ee 01 0f ff e5 fc f0 00
       8 -16 15 -5 -1 22 -21 -25 -18 1 15 -1 -27 -4 -16 0
0000a0 1e 14 fb ef ec 1b d9 ed ea 14 0e f2 d4 f4 02 ed
       30 20 -5 -17 -20 27 -39 -19 -22 20 14 -14 -44 -12 2 -19
0000b0 0d f2 f6 06 05 06 01 bd cd e8 1c ed 00 d3 cf c8
       13 -14 -10 6 5 6 1 -67 -51 -24 28 -19 0 -45 -49 -56
0000c0 bb bf c9 f4 fa ee 05 22 16 f6 f8 f4 de e5 ec 05
       -69 -65 -55 -12 -6 -18 5 34 22 -10 -8 -12 -34 -27 -20 5
0000d0 f8 ef 09 ec 13 0d f0 0d ec f1 e7 e0 f4 fb 22 0b
       -8 -17 9 -20 19 13 -16 13 -20 -15 -25 -32 -12 -5 34 11
0000e0 f4 22 ec ea 10 05 ff e5 01 1d fb f8 f7 16 0c f0
       -12 34 -20 -22 16 5 -1 -27 1 29 -5 -8 -9 22 12 -16
0000f0 fe 06 06 ff 06 06 04 0a 23 22 19 26 08 00 2a 0c
       -2 6 6 -1 6 6 4 10 35 34 25 38 8 0 42 12

onnx::Conv_90_scale f4 [32]
000000 81 c5 f8 3b 0b e4 77 3b 2b 7c 70 3b b6 dc 8c 3b
       0.0075919037 0.0037825133 0.0036695104 0.0042987717
000010 a8 14 8b 3b 78 5b 37 3b 47 75 82 3b 88 c3 e3 3b
       0.004244406 0.0027978104 0.0039812657 0.0069507994
000020 e7 bb c3 3b fe 53 a1 3b eb 85 ad 3b f2 9b ed 3b
       0.0059733274 0.0049233427 0.0052955053 0.007251256
000030 a8 b0 3c 3b 6b 12 61 3b bb da bb 3b 95 42 a4 3b
       0.0028791819 0.0034343253 0.005732862 0.00501282
000040 82 da c8 3b 08 88 a5 3b 3c 7a b5 3b 4c 71 7b 3b
       0.006129564 0.0050516166 0.005538253 0.003836709
000050 ab 51 8b 3b 61 63 7b 3b 07 c9 8b 3b e5 d0 49 3b
       0.004251679 0.0038358795 0.0042659077 0.0030794677
000060 26 62 a8 3b d6 53 9b 3b 5c 94 67 3b 44 66 a0 3b
       0.0051386533 0.0047402186 0.0035336232 0.0048950035
000070 4f 91 93 3b ac 07 82 3b ae 42 90 3b b4 b6 3a 3b
       0.004503406 0.0039681997 0.00440248 0.0028490247

onnx::Conv_93_quantized i1 [64, 32, 3, 3]
000000 c8 a4 a0 a1 81 a0 ec f5 e7 e2 07 0f da 0a 1c 07
       -56 -92 -96 -95 -127 -96 -20 -11 -25 -30 7 15 -38 10 28 7
000010 25 18 fc fd 0b dc eb f5 ec dc da 28 28 44 3a 47
       37 24 -4 -3 11 -36 -21 -11 -20 -36 -38 40 40 68 58 71
000020 37 4b 3d 20 dc c6 bd ed 03 dc 07 31 20 d7 c9 de
       55 75 61 32 -36 -58 -67 -19 3 -36 7 49 32 -41 -55 -34
000030 fd e6 f2 28 3e 39 02 0a 0e db de e0 fc ee ea 08
       -3 -26 -14 40 62 57 2 10 14 -37 -34 -32 -4 -18 -22 8
000040 26 1e f4 d1 e6 ce b8 d9 04 d5 d5 d8 c2 dc d1 d1
       38 30 -12 -47 -26 -50 -72 -39 4 -43 -43 -40 -62 -36 -47 -47
000050 e8 44 31 15 30 fb 12 dc c1 c7 d0 f3 ff d9 1f 20
       -24 68 49 21 48 -5 18 -36 -63 -57 -48 -13 -1 -39 31 32
000060 0c 48 2a 04 e0 ce 14 e7 e9 ee dd f1 29 e9 08 24
       12 72 42 4 -32 -50 20 -25 -23 -18 -35 -15 41 -23 8 36
000070 eb ea 0e fb 0f e8 ea fe 19 25 15 31 44 38 0d 2d
       -21 -22 14 -5 15 -24 -22 -2 25 37 21 49 68 56 13 45
000080 de e0 c5 bd c1 b6 e0 ea 17 23 f1 ed e6 f8 ea f5
       -34 -32 -59 -67 -63 -74 -32 -22 23 35 -15 -19 -26 -8 -22 -11
000090 ea f5 16 c8 cf e5 c9 c1 d8 13 07 05 03 09 e9 1e
       -22 -11 22 -56 -49 -27 -55 -63 -40 19 7 5 3 9 -23 30
0000a0 26 1e ce b5 b2 b4 ab b5 1f 18 13 15 17 13 f1 db
       38 30 -50 -75 -78 -76 -85 -75 31 24 19 21 23 19 -15 -37
0000b0 e7 ed fa e6 fa db dc 01 05 fd 08 1a ec 38 1c 00
       -25 -19 -6 -26 -6 -37 -36 1 5 -3 8 26 -20 56 28 0
0000c0 29 ee e1 14 1c 11 14 12 ef f5 f1 d8 d2 be db e7
       41 -18 -31 20 28 17 20 18 -17 -11 -15 -40 -46 -66 -37 -25
0000d0 e9 dd 03 08 35 18 26 2e 1d 11 d6 ef 0a 26 d5 04
       -23 -35 3 8 53 24 38 46 29 17 -42 -17 10 38 -43 4
0000e0 11 2e d6 fc de c8 e9 a1 ad cd 26 ef e2 f1 c7 bf
       17 46 -42 -4 -34 -56 -23 -95 -83 -51 38 -17 -30 -15 -57 -65
0000f0 fe c4 c4 bc a7 cf e4 e5 08 31 2b 25 00 1b fa a7
       -2 -60 -60 -68 -89 -49 -28 -27 8 49 43 37 0 27 -6 -89

onnx::Conv_93_scale f4 [64]
000000 b3 db 71 3a 0f da dc 39 01 c8 58 3a 83 d2 34 3a
       0.0009226158 0.00042124136 0.0008269549 0.0006897824
000010 cc e6 41 3a 88 16 29 3a 2c f0 2d 3a f5 d8 55 3a
       0.0007396757 0.0006450196 0.00066352147 0.00081576343
000020 8f cb 12 3a bb 00 3c 3a bf 4d 6a 3a f2 8a 32 3a
       0.00055997906 0.00071717397 0.00089379767 0.00068108656
000030 8a 18 52 3a 99 79 39 3a b6 e4 34 3a cf 41 70 3a
       0.0008014521 0.00070753094 0.00069005357 0.00091650797
000040 54 03 29 3a 66 26 1f 3a 68 35 35 3a 47 9d 6b 3a
       0.00064473343 0.00060710905 0.000691256 0.0008987975
000050 b5 cb 3b 3a 4f 18 47 3a 99 15 74 3a 1d f6 13 3a
       0.00071638386 0.000759487 0.00093110796 0.0005644279
000060 69 1a 5a 3a c9 c1 3a 3a ad 22 ae 3a 1a 0d a3 3a
       0.00083199755 0.0007124213 0.0013285481 0.0012439818
000070 f8 1e 16 3a 7b db 45 3a 6d e6 2e 3a a9 ca 8d 3a
       0.00057266606 0.0007547659 0.00066719094 0.0010817844
000080 b3 0e 49 3a c2 62 1a 3a 1f 65 45 3a 84 26 0a 3a
       0.0007669732 0.000588935 0.0007530022 0.00052700215
000090 1b b5 80 3a b1 aa 5a 3a e0 4e 22 3a 66 ee 1f 3a
       0.0009819599 0.0008341475 0.0006191563 0.0006100893
0000a0 6e f2 2a 3a eb 66 11 3a 68 42 31 3a 8c f2 27 3a
       0.000652111 0.0005546647 0.00067619095 0.0006406687
0000b0 d8 51 81 3a 1c 65 28 3a fd 8a 77 3a 92 44 45 3a
       0.000986631 0.0006423758 0.0009443013 0.00075251714
0000c0 de f8 4c 3a dc 27 69 3a 6a c8 08 3a 0b a3 23 3a
       0.00078190665 0.0008894184 0.00052178523 0.0006242252
0000d0 b3 4c 50 3a 04 cf 53 3a d2 8d 6a 3a 24 47 3b 3a
       0.00079459994 0.0008079859 0.00089475245 0.00071440847
0000e0 2b 1c 1b 3a ad 44 61 3a b9 8c 16 3a 9c 87 8b 3a
       0.0005916978 0.00085933023 0.0005743015 0.0010645273
0000f0 95 60 2b 3a 2c 39 60 3a 73 e0 87 3a 0f cb 55 3a
       0.0006537524 0.0008553441 0.0010366574 0.0008155563

features.2.conv_for_stride.weight_quantized i1 [64, 32, 3, 3]
000000 f2 fa 1f f9 04 f8 15 2c 03 1b 14 f4 02 21 d1 1a
       -14 -6 31 -7 4 -8 21 44 3 27 20 -12 2 33 -47 26
000010 26 db be bb e5 9e 9c d8 ea da 07 56 65 38 34 2d
       38 -37 -66 -69 -27 -98 -100 -40 -22 -38 7 86 101 56 52 45
000020 23 45 3f 26 d5 01 04 e6 e8 06 fe 07 1c e6 b8 c9
       35 69 63 38 -43 1 4 -26 -24 6 -2 7 28 -26 -72 -55
000030 c7 99 bb f2 ab c9 30 31 4c 3b 39 30 e6 ca e5 20
       -57 -103 -69 -14 -85 -55 48 49 76 59 57 48 -26 -54 -27 32
000040 55 27 39 53 39 37 48 3e 26 0b 1b 0a ed ef 03 e5
       85 39 57 83 57 55 72 62 38 11 27 10 -19 -17 3 -27
000050 ea e6 b7 b8 bf 89 9d e0 c7 e3 f8 16 25 f3 17 1a
       -22 -26 -73 -72 -65 -119 -99 -32 -57 -29 -8 22 37 -13 23 26
000060 ff 1a 25 4c 3f 3f 0e 0c 0a 02 0c 06 fa d9 13 09
       -1 26 37 76 63 63 14 12 10 2 12 6 -6 -39 19 9
000070 b0 d3 0c f1 09 4b 17 e1 51 1e db 2f 2f e7 e3 ba
       -80 -45 12 -15 9 75 23 -31 81 30 -37 47 47 -25 -29 -70
000080 e7 e5 a0 c7 05 cc df f0 0a f6 13 1f 01 2e 2d 15
       -25 -27 -96 -57 5 -52 -33 -16 10 -10 19 31 1 46 45 21
000090 c6 d5 e2 be b4 eb db cc e7 09 fa fa d6 ba cb de
       -58 -43 -30 -66 -76 -21 -37 -52 -25 9 -6 -6 -42 -70 -53 -34
0000a0 9f bb f0 cd 9f 16 0e ec 22 24 ed 19 e7 db 0b c2
       -97 -69 -16 -51 -97 22 14 -20 34 36 -19 25 -25 -37 11 -62
0000b0 ad e7 ac c4 4e 1d 24 23 15 0d 52 57 45 15 f0 d8
       -83 -25 -84 -60 78 29 36 35 21 13 82 87 69 21 -16 -40
0000c0 f7 bf c3 d6 cf c3 fe c9 cb f4 b5 a6 bf ad 90 f5
       -9 -65 -61 -42 -49 -61 -2 -55 -53 -12 -75 -90 -65 -83 -112 -11
0000d0 06 0c ee 06 14 df da e7 e3 e9 d0 d8 ec ec fc db
       6 12 -18 6 20 -33 -38 -25 -29 -23 -48 -40 -20 -20 -4 -37
0000e0 e1 3b d0 04 3b ba f2 14 a0 b7 13 0a 12 fc f9 f9
       -31 59 -48 4 59 -70 -14 20 -96 -73 19 10 18 -4 -7 -7
0000f0 2c 1f 18 74 66 46 4e 37 19 1c 19 20 01 f8 14 d9
       44 31 24 116 102 70 78 55 25 28 25 32 1 -8 20 -39

features.2.conv_for_stride.weight_scale f4 [64]
000000 10 3f 3a 3b cd f0 31 3b b8 a1 82 3b b6 82 42 3b
       0.0028418936 0.0027151585 0.0039865635 0.002967996
000010 7a 46 6d 3b 20 79 5d 3b 50 5c 6b 3b 81 94 44 3b
       0.0036205337 0.003379412 0.0035913177 0.0029995742
000020 de 95 49 3b b1 e5 30 3b a9 68 53 3b b7 e6 3c 3b
       0.0030759494 0.0026992375 0.0032258427 0.002882404
000030 5d ef 1d 3b 5d ea 5a 3b 4b a2 3c 3b d9 86 6f 3b
       0.002409897 0.0033403852 0.0028783258 0.0036548881
000040 17 6d 3a 3b 10 28 42 3b b5 07 37 3b 92 e5 40 3b
       0.002844637 0.002962593 0.0027928178 0.002943371
000050 75 03 72 3b 91 96 42 3b bb 45 4c 3b d7 bb 2c 3b
       0.003692833 0.0029691795 0.0031169492 0.0026357078
000060 ca 6b 16 3b fc 7f 39 3b a1 57 0f 3b ff eb 8b 3b
       0.002295243 0.0028305044 0.00218723 0.0042700763
000070 cc 6c 2e 3b 0d 78 1f 3b c8 f2 60 3b 78 5d 55 3b
       0.002661514 0.002433303 0.0034324396 0.0032556932
000080 26 35 49 3b 07 e3 4f 3b 95 63 11 3b b7 ea 3c 3b
       0.0030701845 0.0031721012 0.00221846 0.0028826424
000090 59 3a 2c 3b 86 e7 3c 3b 20 2a 75 3b 8e 19 55 3b
       0.0026279895 0.0028824522 0.0037409142 0.0032516452
0000a0 7e 44 14 3b 53 f2 73 3b 9f 52 4f 3b 20 e5 27 3b
       0.0022623832 0.0037223294 0.003163494 0.0025618747
0000b0 7a 21 21 3b 02 7d 51 3b 00 72 47 3b f6 1a 5a 3b
       0.0024586604 0.003196538 0.003043294 0.003328023
0000c0 f0 ac f9 3a 2e e4 2a 3b e4 73 2f 3b 2d 73 40 3b
       0.0019048732 0.0026075947 0.0026771957 0.0029365525
0000d0 84 e8 4d 3b 2f 2b 56 3b 2d bf 39 3b 60 77 3a 3b
       0.0031419108 0.0032679548 0.002834271 0.00284525
0000e0 95 7b 2b 3b 75 b1 2c 3b 9c ce 22 3b 68 5c 33 3b
       0.002616619 0.002635089 0.0024842387 0.002736831
0000f0 8a 68 5c 3b 60 18 24 3b 93 4d 61 3b de 86 3a 3b
       0.0033631646 0.0025038943 0.0034378513 0.0028461735

onnx::Conv_96_quantized i1 [64, 64, 3, 3]
000000 02 23 d7 1f d4 bf 3a f3 21 59 cb 4e 31 cf 19 37
       2 35 -41 31 -44 -65 58 -13 33 89 -53 78 49 -49 25 55
000010 03 1d 09 24 f1 f8 2c e8 08 34 08 d9 dc e8 f9 fc
       3 29 9 36 -15 -8 44 -24 8 52 8 -39 -36 -24 -7 -4
000020 1b ea ec 1e d8 29 39 f2 17 31 df fd 29 c7 ef 3d
       27 -22 -20 30 -40 41 57 -14 23 49 -33 -3 41 -57 -17 61
000030 d9 f7 36 ce 33 03 0c 23 31 32 f8 fc 39 e1 04 4d
       -39 -9 54 -50 51 3 12 35 49 50 -8 -4 57 -31 4 77
000040 1e 1f 10 06 05 00 24 20 13 fc e1 f4 f5 a7 e5 dd
       30 31 16 6 5 0 36 32 19 -4 -31 -12 -11 -89 -27 -35
000050 85 d7 d2 ef de c7 d5 bf a6 98 1c 1e 1f 11 f3 04
       -123 -41 -46 -17 -34 -57 -43 -65 -90 -104 28 30 31 17 -13 4
000060 fe 0b 17 f3 f0 13 ed f2 09 27 f7 02 3c f2 29 00
       -2 11 23 -13 -16 19 -19 -14 9 39 -9 2 60 -14 41 0
000070 c4 e7 de de 0d 34 21 05 fe ff de 19 14 0f fd b0
       -60 -25 -34 -34 13 52 33 5 -2 -1 -34 25 20 15 -3 -80
000080 ad 26 e6 cd 38 1d f3 19 0b 14 e7 c3 d2 10 11 1c
       -83 38 -26 -51 56 29 -13 25 11 20 -25 -61 -46 16 17 28
000090 da e3 e2 da f1 2e 18 ed 39 15 ca f0 11 e0 ee 2d
       -38 -29 -30 -38 -15 46 24 -19 57 21 -54 -16 17 -32 -18 45
0000a0 fb dc 07 16 2a fc f5 ff 1b 19 05 36 10 44 26 ff
       -5 -36 7 22 42 -4 -11 -1 27 25 5 54 16 68 38 -1
0000b0 2e 0e 11 21 13 de 0f f7 dd fa e8 e9 0c 19 e5 21
       46 14 17 33 19 -34 15 -9 -35 -6 -24 -23 12 25 -27 33
0000c0 dc a8 d0 34 ed fc ee d8 2a ef e3 08 e6 ff ea f6
       -36 -88 -48 52 -19 -4 -18 -40 42 -17 -29 8 -26 -1 -22 -10
0000d0 e9 05 f7 08 45 f8 1a 18 e1 02 fb 2a 1e e0 2d ef
       -23 5 -9 8 69 -8 26 24 -31 2 -5 42 30 -32 45 -17
0000e0 e4 1f ef dc 22 e8 f6 02 e5 f4 e5 a7 d3 05 eb 01
       -28 31 -17 -36 34 -24 -10 2 -27 -12 -27 -89 -45 5 -21 1
0000f0 22 24 f5 ac aa e6 81 c4 ea bc e0 fe 01 19 fb f3
       34 36 -11 -84 -86 -26 -127 -60 -22 -68 -32 -2 1 25 -5 -13

onnx::Conv_96_scale f4 [64]
000000 98 d7 29 3c dc 61 11 3c cf 3f 74 3c f6 7b fe 3b
       0.010366343 0.008873429 0.014907791 0.007766242
000010 c9 ad 44 3c e0 bb 58 3c 8d f7 80 3c f5 d6 85 3c
       0.012004324 0.013228387 0.015743041 0.016337851
000020 9d aa 0b 3c 7b ec 58 3c fc b9 5f 3c 53 b8 74 3c
       0.008524564 0.013239975 0.013655182 0.014936524
000030 c1 21 2d 3c 7a e7 5e 3c b7 3c 5e 3c 0d fb 11 3c
       0.01056713 0.013604993 0.01356428 0.008909953
000040 4e ec 33 3c c2 d3 27 3c 0d 59 4b 3c 25 8b 1b 3c
       0.010981632 0.010243358 0.012411368 0.009493624
000050 fc 94 3e 3c e2 92 08 3c f6 d6 13 3c e2 ab 16 3c
       0.0116322 0.008335801 0.009023419 0.0091962535
000060 26 a7 38 3c 91 f6 0d 3c 6c fa 22 3c ed 4e 22 3c
       0.01127032 0.008664743 0.009947401 0.009906513
000070 58 18 20 3c d2 51 f5 3b e5 49 23 3c 3e 66 73 3c
       0.009771429 0.0074865604 0.009966348 0.014855919
000080 b1 d5 02 3c 63 4d 61 3c 2c 7c 7c 3c ef a9 45 3c
       0.007985518 0.013751361 0.015410464 0.012064441
000090 72 40 1c 3c e3 b0 79 3c 06 bd 15 3c bc 60 fa 3b
       0.009536849 0.015239927 0.009139305 0.007640926
0000a0 30 1d 0a 3c c3 8b 30 3c 91 5a 3e 3c db e1 58 3c
       0.00842981 0.010775509 0.011618272 0.013237442
0000b0 f8 74 0c 3c b4 4b 3c 3c 05 ee 05 3c 4a 58 83 3c
       0.008572809 0.011492658 0.008174424 0.01603331
0000c0 43 55 31 3c 42 52 24 3c ab 43 67 3c eb 22 09 3c
       0.010823551 0.010029377 0.014115254 0.0083701415
0000d0 e8 d6 19 3c 7d 1c 29 3c 3e 40 44 3c b6 74 5b 3c
       0.009389617 0.010321734 0.011978207 0.013394525
0000e0 e7 a6 30 3c 0e f9 2f 3c 63 b3 51 3c 79 1a 37 3c
       0.01078198 0.010740532 0.012799117 0.011175745
0000f0 2b 5d 4d 3c 90 79 20 3c b3 a1 38 3c dc f2 1d 3c
       0.01253442 0.009794608 0.011269021 0.009640422

classifier.weight_quantized i1 [64, 10]
000000 23 d2 ef 49 fc 2f c8 d0 e8 0d 05 42 d8 f3 e6 e7
       35 -46 -17 73 -4 47 -56 -48 -24 13 5 66 -40 -13 -26 -25
000010 d1 39 e6 62 e3 c9 02 f2 f0 eb 1a f2 7f e9 17 0a
       -47 57 -26 98 -29 -55 2 -14 -16 -21 26 -14 127 -23 23 10
000020 00 f2 04 ca d3 3d 15 0f f3 16 e9 ed 6d fa d5 32
       0 -14 4 -54 -45 61 21 15 -13 22 -23 -19 109 -6 -43 50
000030 ea ba fd e6 1c dd e8 7f e3 c4 f9 fc e5 e8 ca e9
       -22 -70 -3 -26 28 -35 -24 127 -29 -60 -7 -4 -27 -24 -54 -23
000040 69 f9 eb 63 f5 d0 dd c9 7f f4 2c 07 0d d5 d8 db
       105 -7 -21 99 -11 -48 -35 -55 127 -12 44 7 13 -43 -40 -37
000050 f7 03 bb 0b 34 14 f9 01 e8 0c cd f6 1a dc de f6
       -9 3 -69 11 52 20 -7 1 -24 12 -51 -10 26 -36 -34 -10
000060 7c 2c ef ee 21 e0 7f e2 d9 f9 ec 09 e1 fa dd f6
       124 44 -17 -18 33 -32 127 -30 -39 -7 -20 9 -31 -6 -35 -10
000070 0a de d2 7a e5 ef 0f fb cf 7f 25 f9 03 07 e1 e2
       10 -34 -46 122 -27 -17 15 -5 -49 127 37 -7 3 7 -31 -30
000080 ee e0 ec cc e5 02 7f f0 05 cc f6 08 3f e0 73 e3
       -18 -32 -20 -52 -27 2 127 -16 5 -52 -10 8 63 -32 115 -29
000090 03 e7 f3 c4 ef f0 f1 12 d1 0f e5 01 1b f2 cc 7e
       3 -25 -13 -60 -17 -16 -15 18 -47 15 -27 1 27 -14 -52 126
0000a0 db c6 10 15 26 4d f1 2b c9 bb e0 ef d7 f8 fc 10
       -37 -58 16 21 38 77 -15 43 -55 -69 -32 -17 -41 -8 -4 16
0000b0 ef e0 5d 1c 60 be c6 0c fa 26 e8 3c d5 f6 13 56
       -17 -32 93 28 96 -66 -58 12 -6 38 -24 60 -43 -10 19 86
0000c0 c5 0c ee f2 cc f1 1d 20 00 68 27 15 f1 f0 cd f1
       -59 12 -18 -14 -52 -15 29 32 0 104 39 21 -15 -16 -51 -15
0000d0 15 a5 53 3b e5 d8 da d7 f6 d7 22 3d 2f fc 3a f7
       21 -91 83 59 -27 -40 -38 -41 -10 -41 34 61 47 -4 58 -9
0000e0 ff dc 09 00 fc c3 1c f2 ee 0a d3 2a cb 12 37 dd
       -1 -36 9 0 -4 -61 28 -14 -18 10 -45 42 -53 18 55 -35
0000f0 e6 f9 e4 ef 0b 3b 49 df ea e4 29 2e 25 15 de e8
       -26 -7 -28 -17 11 59 73 -33 -22 -28 41 46 37 21 -34 -24

classifier.weight_scale f4 [10]
000000 e8 fc 9c 3c 79 92 8a 3c c5 b3 ad 3c 24 05 be 3c
       0.019163564 0.016915547 0.021203885 0.02319581
000010 56 64 c2 3c c4 d6 ca 3c 51 5d 9d 3c be eb 8d 3c
       0.023729485 0.024760611 0.019209536 0.017324325
000020 09 b3 b4 3c 08 4e 8c 3c
       0.022058027 0.017127052

classifier.bias_quantized u1 [10]
000000 ff 00 be f9 c9 8f c7 2e 88 78
       255 0 190 249 201 143 199 46 136 120

split_5_w_0 i1 [32, 28, 3, 3]
000000 13 0d e1 fb fd df 33 f2 f4 cd dd e7 db fa ff 08
       19 13 -31 -5 -3 -33 51 -14 -12 -51 -35 -25 -37 -6 -1 8
000010 22 0e f2 01 07 f5 e8 fb ed f5 df 0a 0c 01 0e 0f
       34 14 -14 1 7 -11 -24 -5 -19 -11 -33 10 12 1 14 15
000020 e9 0b 2b 26 f9 06 02 eb 03 19 df 27 54 e8 04 f2
       -23 11 43 38 -7 6 2 -21 3 25 -33 39 84 -24 4 -14
000030 05 f5 09 2f 0e f6 00 23 31 07 ff 11 17 08 dc 02
       5 -11 9 47 14 -10 0 35 49 7 -1 17 23 8 -36 2
000040 03 07 28 02 fe 02 dc dd 10 fc e3 1a 21 fa 3f 2c
       3 7 40 2 -2 2 -36 -35 16 -4 -29 26 33 -6 63 44
000050 06 f7 ec e8 1a 26 21 fe 02 37 55 48 7f d1 c3 d3
       6 -9 -20 -24 26 38 33 -2 2 55 85 72 127 -47 -61 -45
000060 ee e9 c8 06 e3 f4 18 fe fa 02 15 2f cb a3 e9 27
       -18 -23 -56 6 -29 -12 24 -2 -6 2 21 47 -53 -93 -23 39
000070 16 19 2b 16 15 01 e4 17 1b 01 2f ff fc fb 31 29
       22 25 43 22 21 1 -28 23 27 1 47 -1 -4 -5 49 41
000080 08 26 12 e5 09 f2 e7 10 06 f6 d2 cb e1 10 07 ef
       8 38 18 -27 9 -14 -25 16 6 -10 -46 -53 -31 16 7 -17
000090 08 f0 0f fb ff 16 eb e7 ee 01 0f ff e5 fc f0 00
       8 -16 15 -5 -1 22 -21 -25 -18 1 15 -1 -27 -4 -16 0
0000a0 1e 14 fb ef ec 1b d9 ed ea 14 0e f2 d4 f4 02 ed
       30 20 -5 -17 -20 27 -39 -19 -22 20 14 -14 -44 -12 2 -19
0000b0 0d f2 f6 06 05 06 01 bd cd e8 1c ed 00 d3 cf c8
       13 -14 -10 6 5 6 1 -67 -51 -24 28 -19 0 -45 -49 -56
0000c0 bb bf c9 f4 fa ee 05 22 16 f6 f8 f4 de e5 ec 05
       -69 -65 -55 -12 -6 -18 5 34 22 -10 -8 -12 -34 -27 -20 5
0000d0 f8 ef 09 ec 13 0d f0 0d ec f1 e7 e0 f4 fb 22 0b
       -8 -17 9 -20 19 13 -16 13 -20 -15 -25 -32 -12 -5 34 11
0000e0 f4 22 ec ea 10 05 ff e5 01 1d fb f8 f7 16 0c f0
       -12 34 -20 -22 16 5 -1 -27 1 29 -5 -8 -9 22 12 -16
0000f0 fe 06 06 ff 06 06 04 0a 23 22 19 26 e8 af ff f1
       -2 6 6 -1 6 6 4 10 35 34 25 38 -24 -81 -1 -15

split_5_w_1 i1 [32, 4, 3, 3]
000000 08 00 2a 0c 03 15 e7 ef d5 f8 10 f8 09 0e f5 de
       8 0 42 12 3 21 -25 -17 -43 -8 16 -8 9 14 -11 -34
000010 e0 08 26 0e 00 de 08 ea 04 0d f2 f2 fb f7 15 14
       -32 8 38 14 0 -34 8 -22 4 13 -14 -14 -5 -9 21 20
000020 1d 2a 10 2a f3 3c d3 10 3a fc d3 46 e8 de 2d f6
       29 42 16 42 -13 60 -45 16 58 -4 -45 70 -24 -34 45 -10
000030 12 5e 38 f9 1c ff 34 03 f7 19 05 e9 02 21 0c c9
       18 94 56 -7 28 -1 52 3 -9 25 5 -23 2 33 12 -55
000040 fb f4 bc f5 ec b1 ff c5 0c f6 f4 1c f5 2d 5d 2e
       -5 -12 -68 -11 -20 -79 -1 -59 12 -10 -12 28 -11 45 93 46
000050 0b 04 08 2c 07 e7 02 0a f5 e0 c7 bc d8 fb dd e0
       11 4 8 44 7 -25 2 10 -11 -32 -57 -68 -40 -5 -35 -32
000060 00 f7 33 05 f0 02 03 ff 3a fd d4 e3 ef cd ff f6
       0 -9 51 5 -16 2 3 -1 58 -3 -44 -29 -17 -51 -1 -10
000070 06 f2 ec ef c7 1d f8 f4 2e 08 28 15 ee ef d6 81
       6 -14 -20 -17 -57 29 -8 -12 46 8 40 21 -18 -17 -42 -127
000080 c0 f6 f2 01 c7 11 ce 27 14 1f 12 0b 19 a9 c6 c5
       -64 -10 -14 1 -57 17 -50 39 20 31 18 11 25 -87 -58 -59
000090 f8 21 04 16 37 0b e0 23 2e dd 5a 2b b9 44 0b ae
       -8 33 4 22 55 11 -32 35 46 -35 90 43 -71 68 11 -82
0000a0 e6 0c fa d3 df fa d6 f5 14 ef 05 2f ec dc da d0
       -26 12 -6 -45 -33 -6 -42 -11 20 -17 5 47 -20 -36 -38 -48
0000b0 c7 d6 f3 d9 0d fa e0 32 fa fd 2a 2f 12 f3 ed eb
       -57 -42 -13 -39 13 -6 -32 50 -6 -3 42 47 18 -13 -19 -21
0000c0 0d 33 49 c7 01 49 c2 c3 cc ba f0 e4 02 01 e2 16
       13 51 73 -57 1 73 -62 -61 -52 -70 -16 -28 2 1 -30 22
0000d0 ee 36 08 cb fe 1f f7 21 f0 f8 d7 ec 09 ca fc ef
       -18 54 8 -53 -2 31 -9 33 -16 -8 -41 -20 9 -54 -4 -17
0000e0 be 1f fc ee 09 03 e7 e9 ff e5 09 eb 07 fa f7 fd
       -66 31 -4 -18 9 3 -25 -23 -1 -27 9 -21 7 -6 -9 -3
0000f0 0c 11 00 e3 f0 e7 1f fb f8 3c ee e9 fc de f0 fd
       12 17 0 -29 -16 -25 31 -5 -8 60 -18 -23 -4 -34 -16 -3

split_6_w_0 i1 [64, 28, 3, 3]
000000 c8 a4 a0 a1 81 a0 ec f5 e7 e2 07 0f da 0a 1c 07
       -56 -92 -96 -95 -127 -96 -20 -11 -25 -30 7 15 -38 10 28 7
000010 25 18 fc fd 0b dc eb f5 ec dc da 28 28 44 3a 47
       37 24 -4 -3 11 -36 -21 -11 -20 -36 -38 40 40 68 58 71
000020 37 4b 3d 20 dc c6 bd ed 03 dc 07 31 20 d7 c9 de
       55 75 61 32 -36 -58 -67 -19 3 -36 7 49 32 -41 -55 -34
000030 fd e6 f2 28 3e 39 02 0a 0e db de e0 fc ee ea 08
       -3 -26 -14 40 62 57 2 10 14 -37 -34 -32 -4 -18 -22 8
000040 26 1e f4 d1 e6 ce b8 d9 04 d5 d5 d8 c2 dc d1 d1
       38 30 -12 -47 -26 -50 -72 -39 4 -43 -43 -40 -62 -36 -47 -47
000050 e8 44 31 15 30 fb 12 dc c1 c7 d0 f3 ff d9 1f 20
       -24 68 49 21 48 -5 18 -36 -63 -57 -48 -13 -1 -39 31 32
000060 0c 48 2a 04 e0 ce 14 e7 e9 ee dd f1 29 e9 08 24
       12 72 42 4 -32 -50 20 -25 -23 -18 -35 -15 41 -23 8 36
000070 eb ea 0e fb 0f e8 ea fe 19 25 15 31 44 38 0d 2d
       -21 -22 14 -5 15 -24 -22 -2 25 37 21 49 68 56 13 45
000080 de e0 c5 bd c1 b6 e0 ea 17 23 f1 ed e6 f8 ea f5
       -34 -32 -59 -67 -63 -74 -32 -22 23 35 -15 -19 -26 -8 -22 -11
000090 ea f5 16 c8 cf e5 c9 c1 d8 13 07 05 03 09 e9 1e
       -22 -11 22 -56 -49 -27 -55 -63 -40 19 7 5 3 9 -23 30
0000a0 26 1e ce b5 b2 b4 ab b5 1f 18 13 15 17 13 f1 db
       38 30 -50 -75 -78 -76 -85 -75 31 24 19 21 23 19 -15 -37
0000b0 e7 ed fa e6 fa db dc 01 05 fd 08 1a ec 38 1c 00
       -25 -19 -6 -26 -6 -37 -36 1 5 -3 8 26 -20 56 28 0
0000c0 29 ee e1 14 1c 11 14 12 ef f5 f1 d8 d2 be db e7
       41 -18 -31 20 28 17 20 18 -17 -11 -15 -40 -46 -66 -37 -25
0000d0 e9 dd 03 08 35 18 26 2e 1d 11 d6 ef 0a 26 d5 04
       -23 -35 3 8 53 24 38 46 29 17 -42 -17 10 38 -43 4
0000e0 11 2e d6 fc de c8 e9 a1 ad cd 26 ef e2 f1 c7 bf
       17 46 -42 -4 -34 -56 -23 -95 -83 -51 38 -17 -30 -15 -57 -65
0000f0 fe c4 c4 bc a7 cf e4 e5 08 31 2b 25 f7 de bd dc
       -2 -60 -60 -68 -89 -49 -28 -27 8 49 43 37 -9 -34 -67 -36

split_6_w_1 i1 [64, 4, 3, 3]
000000 00 1b fa a7 a9 cd c1 ec ff f9 02 ee e0 f1 f8 bc
       0 27 -6 -89 -87 -51 -63 -20 -1 -7 2 -18 -32 -15 -8 -68
000010 c0 e7 37 4b 2d 29 42 2c 01 1b 0c 18 f4 eb 0b de
       -64 -25 55 75 45 41 66 44 1 27 12 24 -12 -21 11 -34
000020 de 27 1e 21 ca d2 06 ca a1 f5 fb 04 fe c1 35 ed
       -34 39 30 33 -54 -46 6 -54 -95 -11 -5 4 -2 -63 53 -19
000030 81 f7 a3 84 e5 8d 07 35 fd 47 22 0c f6 04 fb 92
       -127 -9 -93 -124 -27 -115 7 53 -3 71 34 12 -10 4 -5 -110
000040 d0 fc e6 ee ee 44 fd 2e 38 63 48 e0 0e 44 bd e3
       -48 -4 -26 -18 -18 68 -3 46 56 99 72 -32 14 68 -67 -29
000050 1c fa 02 2a f8 22 3f b4 be e0 de ef f5 d1 d5 c2
       28 -6 2 42 -8 34 63 -76 -66 -32 -34 -17 -11 -47 -43 -62
000060 f1 f1 f9 e7 e2 de dd f9 fb e1 2f 3e ee dd f1 e4
       -15 -15 -7 -25 -30 -34 -35 -7 -5 -31 47 62 -18 -35 -15 -28
000070 e0 0a e4 f7 20 2e 15 fd 3b 33 06 24 0a e4 01 f7
       -32 10 -28 -9 32 46 21 -3 59 51 6 36 10 -28 1 -9
000080 0b f6 ee fa 11 ef ef bb d5 0b fc f5 05 28 f3 29
       11 -10 -18 -6 17 -17 -17 -69 -43 11 -4 -11 5 40 -13 41
000090 e4 09 1c f7 f8 f0 18 18 10 b5 db c6 bd d5 bf f9
       -28 9 28 -9 -8 -16 24 24 16 -75 -37 -58 -67 -43 -65 -7
0000a0 f3 e4 02 15 29 05 02 20 c6 dd 00 ed b2 ce e7 de
       -13 -28 2 21 41 5 2 32 -58 -35 0 -19 -78 -50 -25 -34
0000b0 f7 e6 ee 1d f9 cd fd fa d2 f1 fb f0 f2 30 38 e1
       -9 -26 -18 29 -7 -51 -3 -6 -46 -15 -5 -16 -14 48 56 -31
0000c0 10 24 fc d5 da c5 1c 04 ed 2f 1f fe 33 0e f0 a8
       16 36 -4 -43 -38 -59 28 4 -19 47 31 -2 51 14 -16 -88
0000d0 9b 90 ae ae b6 ab b9 08 0e e3 0b 1c cd c2 03 dd
       -101 -112 -82 -82 -74 -85 -71 8 14 -29 11 28 -51 -62 3 -35
0000e0 de 14 f5 b9 fc ea d6 f0 d3 b7 b7 9b b5 ae 81 a1
       -34 20 -11 -71 -4 -22 -42 -16 -45 -73 -73 -101 -75 -82 -127 -95
0000f0 e7 ac dd 1f de b2 e6 e5 be fc 02 e7 d7 e5 e3 f1
       -25 -84 -35 31 -34 -78 -26 -27 -66 -4 2 -25 -41 -27 -29 -15

split_7_w_0 i1 [64, 28, 3, 3]
000000 f2 fa 1f f9 04 f8 15 2c 03 1b 14 f4 02 21 d1 1a
       -14 -6 31 -7 4 -8 21 44 3 27 20 -12 2 33 -47 26
000010 26 db be bb e5 9e 9c d8 ea da 07 56 65 38 34 2d
       38 -37 -66 -69 -27 -98 -100 -40 -22 -38 7 86 101 56 52 45
000020 23 45 3f 26 d5 01 04 e6 e8 06 fe 07 1c e6 b8 c9
       35 69 63 38 -43 1 4 -26 -24 6 -2 7 28 -26 -72 -55
000030 c7 99 bb f2 ab c9 30 31 4c 3b 39 30 e6 ca e5 20
       -57 -103 -69 -14 -85 -55 48 49 76 59 57 48 -26 -54 -27 32
000040 55 27 39 53 39 37 48 3e 26 0b 1b 0a ed ef 03 e5
       85 39 57 83 57 55 72 62 38 11 27 10 -19 -17 3 -27
000050 ea e6 b7 b8 bf 89 9d e0 c7 e3 f8 16 25 f3 17 1a
       -22 -26 -73 -72 -65 -119 -99 -32 -57 -29 -8 22 37 -13 23 26
000060 ff 1a 25 4c 3f 3f 0e 0c 0a 02 0c 06 fa d9 13 09
       -1 26 37 76 63 63 14 12 10 2 12 6 -6 -39 19 9
000070 b0 d3 0c f1 09 4b 17 e1 51 1e db 2f 2f e7 e3 ba
       -80 -45 12 -15 9 75 23 -31 81 30 -37 47 47 -25 -29 -70
000080 e7 e5 a0 c7 05 cc df f0 0a f6 13 1f 01 2e 2d 15
       -25 -27 -96 -57 5 -52 -33 -16 10 -10 19 31 1 46 45 21
000090 c6 d5 e2 be b4 eb db cc e7 09 fa fa d6 ba cb de
       -58 -43 -30 -66 -76 -21 -37 -52 -25 9 -6 -6 -42 -70 -53 -34
0000a0 9f bb f0 cd 9f 16 0e ec 22 24 ed 19 e7 db 0b c2
       -97 -69 -16 -51 -97 22 14 -20 34 36 -19 25 -25 -37 11 -62
0000b0 ad e7 ac c4 4e 1d 24 23 15 0d 52 57 45 15 f0 d8
       -83 -25 -84 -60 78 29 36 35 21 13 82 87 69 21 -16 -40
0000c0 f7 bf c3 d6 cf c3 fe c9 cb f4 b5 a6 bf ad 90 f5
       -9 -65 -61 -42 -49 -61 -2 -55 -53 -12 -75 -90 -65 -83 -112 -11
0000d0 06 0c ee 06 14 df da e7 e3 e9 d0 d8 ec ec fc db
       6 12 -18 6 20 -33 -38 -25 -29 -23 -48 -40 -20 -20 -4 -37
0000e0 e1 3b d0 04 3b ba f2 14 a0 b7 13 0a 12 fc f9 f9
       -31 59 -48 4 59 -70 -14 20 -96 -73 19 10 18 -4 -7 -7
0000f0 2c 1f 18 74 66 46 4e 37 19 1c 19 20 fa 16 27 04
       44 31 24 116 102 70 78 55 25 28 25 32 -6 22 39 4

split_7_w_1 i1 [64, 4, 3, 3]
000000 01 f8 14 d9 f7 14 ef f1 0a af 2e f0 96 09 d7 81
       1 -8 20 -39 -9 20 -17 -15 10 -81 46 -16 -106 9 -41 -127
000010 e6 c5 14 16 10 04 ce da e2 ae bb 38 05 e1 d7 d2
       -26 -59 20 22 16 4 -50 -38 -30 -82 -69 56 5 -31 -41 -46
000020 d3 0b eb c9 ec df f5 d3 cd db 07 f0 f2 da e7 dd
       -45 11 -21 -55 -20 -33 -11 -45 -51 -37 7 -16 -14 -38 -25 -35
000030 c6 cb b7 1a d9 bc 32 31 23 05 1e 15 f6 e4 c6 1a
       -58 -53 -73 26 -39 -68 50 49 35 5 30 21 -10 -28 -58 26
000040 ef d6 bf bd d8 af dd 1e 28 fb 10 df be eb b5 c8
       -17 -42 -65 -67 -40 -81 -35 30 40 -5 16 -33 -66 -21 -75 -56
000050 eb 09 0d fb d1 fe ee ad ec dc 08 02 02 f5 f5 f5
       -21 9 13 -5 -47 -2 -18 -83 -20 -36 8 2 2 -11 -11 -11
000060 fa 08 0b ed dc ed f8 f8 14 eb 05 41 19 02 07 f2
       -6 8 11 -19 -36 -19 -8 -8 20 -21 5 65 25 2 7 -14
000070 f6 ee 04 1e 09 27 0e 22 d6 ba d0 d3 d4 d2 e7 da
       -10 -18 4 30 9 39 14 34 -42 -70 -48 -45 -44 -46 -25 -38
000080 cc 25 1c 22 1c 1d 25 d2 d4 c9 b7 b2 ba b4 b8 b7
       -52 37 28 34 28 29 37 -46 -44 -55 -73 -78 -70 -76 -72 -73
000090 c4 dd f9 d9 cd f3 e5 d9 e9 de e5 ca e4 e1 de d2
       -60 -35 -7 -39 -51 -13 -27 -39 -23 -34 -27 -54 -28 -31 -34 -46
0000a0 d7 e2 3a 54 37 19 41 ff e4 e7 e3 06 ec f3 ef db
       -41 -30 58 84 55 25 65 -1 -28 -25 -29 6 -20 -13 -17 -37
0000b0 d7 26 e0 dd f0 f2 25 b6 a2 d3 ad a1 c5 cd 21 ee
       -41 38 -32 -35 -16 -14 37 -74 -94 -45 -83 -95 -59 -51 33 -18
0000c0 cb 23 fd 9a ef e0 dd d8 df 08 df e8 f9 e0 f4 e0
       -53 35 -3 -102 -17 -32 -35 -40 -33 8 -33 -24 -7 -32 -12 -32
0000d0 c1 da f6 ce df 0b d7 c4 e7 eb d5 e0 c7 be fe e4
       -63 -38 -10 -50 -33 11 -41 -60 -25 -21 -43 -32 -57 -66 -2 -28
0000e0 dc e2 f7 cf d8 dd c5 e0 fb db 06 2f 2b 14 29 20
       -36 -30 -9 -49 -40 -35 -59 -32 -5 -37 6 47 43 20 41 32
0000f0 fd 17 13 f2 c8 bc 14 db c0 30 f2 c2 1e cd 85 e2
       -3 23 19 -14 -56 -68 20 -37 -64 48 -14 -62 30 -51 -123 -30

split_8_w_0 i1 [64, 28, 3, 3]
000000 02 23 d7 1f d4 bf 3a f3 21 59 cb 4e 31 cf 19 37
       2 35 -41 31 -44 -65 58 -13 33 89 -53 78 49 -49 25 55
000010 03 1d 09 24 f1 f8 2c e8 08 34 08 d9 dc e8 f9 fc
       3 29 9 36 -15 -8 44 -24 8 52 8 -39 -36 -24 -7 -4
000020 1b ea ec 1e d8 29 39 f2 17 31 df fd 29 c7 ef 3d
       27 -22 -20 30 -40 41 57 -14 23 49 -33 -3 41 -57 -17 61
000030 d9 f7 36 ce 33 03 0c 23 31 32 f8 fc 39 e1 04 4d
       -39 -9 54 -50 51 3 12 35 49 50 -8 -4 57 -31 4 77
000040 1e 1f 10 06 05 00 24 20 13 fc e1 f4 f5 a7 e5 dd
       30 31 16 6 5 0 36 32 19 -4 -31 -12 -11 -89 -27 -35
000050 85 d7 d2 ef de c7 d5 bf a6 98 1c 1e 1f 11 f3 04
       -123 -41 -46 -17 -34 -57 -43 -65 -90 -104 28 30 31 17 -13 4
000060 fe 0b 17 f3 f0 13 ed f2 09 27 f7 02 3c f2 29 00
       -2 11 23 -13 -16 19 -19 -14 9 39 -9 2 60 -14 41 0
000070 c4 e7 de de 0d 34 21 05 fe ff de 19 14 0f fd b0
       -60 -25 -34 -34 13 52 33 5 -2 -1 -34 25 20 15 -3 -80
000080 ad 26 e6 cd 38 1d f3 19 0b 14 e7 c3 d2 10 11 1c
       -83 38 -26 -51 56 29 -13 25 11 20 -25 -61 -46 16 17 28
000090 da e3 e2 da f1 2e 18 ed 39 15 ca f0 11 e0 ee 2d
       -38 -29 -30 -38 -15 46 24 -19 57 21 -54 -16 17 -32 -18 45
0000a0 fb dc 07 16 2a fc f5 ff 1b 19 05 36 10 44 26 ff
       -5 -36 7 22 42 -4 -11 -1 27 25 5 54 16 68 38 -1
0000b0 2e 0e 11 21 13 de 0f f7 dd fa e8 e9 0c 19 e5 21
       46 14 17 33 19 -34 15 -9 -35 -6 -24 -23 12 25 -27 33
0000c0 dc a8 d0 34 ed fc ee d8 2a ef e3 08 e6 ff ea f6
       -36 -88 -48 52 -19 -4 -18 -40 42 -17 -29 8 -26 -1 -22 -10
0000d0 e9 05 f7 08 45 f8 1a 18 e1 02 fb 2a 1e e0 2d ef
       -23 5 -9 8 69 -8 26 24 -31 2 -5 42 30 -32 45 -17
0000e0 e4 1f ef dc 22 e8 f6 02 e5 f4 e5 a7 d3 05 eb 01
       -28 31 -17 -36 34 -24 -10 2 -27 -12 -27 -89 -45 5 -21 1
0000f0 22 24 f5 ac aa e6 81 c4 ea bc e0 fe 0b d9 e9 10
       34 36 -11 -84 -86 -26 -127 -60 -22 -68 -32 -2 11 -39 -23 16

split_8_w_1 i1 [64, 28, 3, 3]
000000 01 19 fb f3 d7 fa 20 df 06 e7 39 14 f3 48 f1 09
       1 25 -5 -13 -41 -6 32 -33 6 -25 57 20 -13 72 -15 9
000010 18 ea 51 3c 3b 06 1e 09 fe d1 1a f1 ea f1 9c cb
       24 -22 81 60 59 6 30 9 -2 -47 26 -15 -22 -15 -100 -53
000020 d8 d3 ff 1a f0 9d 0d fb d6 e4 eb 01 06 d6 ef fd
       -40 -45 -1 26 -16 -99 13 -5 -42 -28 -21 1 6 -42 -17 -3
000030 ec f3 f8 01 e0 ef 3f 06 08 10 f1 11 1d fe 2b ca
       -20 -13 -8 1 -32 -17 63 6 8 16 -15 17 29 -2 43 -54
000040 ca fc d6 f7 fd d3 fe 06 13 6e 5c f3 26 0a da 04
       -54 -4 -42 -9 -3 -45 -2 6 19 110 92 -13 38 10 -38 4
000050 df da 03 fd eb e9 20 0f 3a 6e 04 c7 e1 1b e1 16
       -33 -38 3 -3 -21 -23 32 15 58 110 4 -57 -31 27 -31 22
000060 dc dd 0d 07 d0 0b 01 e5 f7 2c 68 22 05 dc f0 e7
       -36 -35 13 7 -48 11 1 -27 -9 44 104 34 5 -36 -16 -25
000070 d9 1c fd ef 4b d8 04 01 e6 18 1f 00 13 38 28 1c
       -39 28 -3 -17 75 -40 4 1 -26 24 31 0 19 56 40 28
000080 04 39 f5 f3 e8 d5 ee 1e 1e 24 04 10 29 ed 14 05
       4 57 -11 -13 -24 -43 -18 30 30 36 4 16 41 -19 20 5
000090 27 ff 18 f3 dc 08 ee f0 e4 e1 eb 07 e0 df 0a e4
       39 -1 24 -13 -36 8 -18 -16 -28 -31 -21 7 -32 -33 10 -28
0000a0 c7 d2 35 f3 00 fc ec 28 c8 de 69 46 26 0d 2d 25
       -57 -46 53 -13 0 -4 -20 40 -56 -34 105 70 38 13 45 37
0000b0 47 f8 f7 0a 05 0c 1d 2b e7 fb 1a f5 17 e5 f4 02
       71 -8 -9 10 5 12 29 43 -25 -5 26 -11 23 -27 -12 2
0000c0 fb fb d7 ea fe d2 d0 d5 fe 3b 30 0e d9 f5 f9 0f
       -5 -5 -41 -22 -2 -46 -48 -43 -2 59 48 14 -39 -11 -7 15
0000d0 2b 16 f7 d1 ec 1c 1d f6 0e 29 13 17 3b 22 0b 52
       43 22 -9 -47 -20 28 29 -10 14 41 19 23 59 34 11 82
0000e0 f2 04 0f 24 03 15 0a da c7 e6 af fa 1e ba db f1
       -14 4 15 36 3 21 10 -38 -57 -26 -81 -6 30 -70 -37 -15
0000f0 c3 02 01 fa bd f4 fc bf 08 1c 1e 29 fa 1b ed ed
       -61 2 1 -6 -67 -12 -4 -65 8 28 30 41 -6 27 -19 -19

split_8_w_2 i1 [64, 8, 3, 3]
000000 2e f5 1f 36 e8 fe 33 f0 f5 23 ec ec 10 09 de 0a
       46 -11 31 54 -24 -2 51 -16 -11 35 -20 -20 16 9 -34 10
000010 ff bc 32 23 ea ff eb d6 4d 1c 11 23 1a 28 ed c3
       -1 -68 50 35 -22 -1 -21 -42 77 28 17 35 26 40 -19 -61
000020 fa 2f f1 fa 09 01 d1 f9 f9 0b f2 df 08 24 30 f2
       -6 47 -15 -6 9 1 -47 -7 -7 11 -14 -33 8 36 48 -14
000030 15 14 d7 1d 34 ca f4 1b 59 35 0c fd 47 14 05 31
       21 20 -41 29 52 -54 -12 27 89 53 12 -3 71 20 5 49
000040 04 12 37 06 c5 24 07 f7 b8 b9 d4 13 10 29 30 37
       4 18 55 6 -59 36 7 -9 -72 -71 -44 19 16 41 48 55
000050 16 bb cb 12 ca f6 05 ff 47 f0 03 03 04 f3 ea 16
       22 -69 -53 18 -54 -10 5 -1 71 -16 3 3 4 -13 -22 22
000060 d4 e5 d0 f2 11 0d db 25 f3 bd fe 17 4e 25 f9 ca
       -44 -27 -48 -14 17 13 -37 37 -13 -67 -2 23 78 37 -7 -54
000070 f9 29 ce 0c 1f ee b1 3c 1c 0a f0 1e 29 f4 eb 07
       -7 41 -50 12 31 -18 -79 60 28 10 -16 30 41 -12 -21 7
000080 0c df bc e0 bc e7 b7 f6 f2 f3 d0 bf e5 c7 ad e4
       12 -33 -68 -32 -68 -25 -73 -10 -14 -13 -48 -65 -27 -57 -83 -28
000090 54 12 d1 26 fb d0 d6 c9 c0 f9 f2 f5 e9 da e6 cb
       84 18 -47 38 -5 -48 -42 -55 -64 -7 -14 -11 -23 -38 -26 -53
0000a0 12 f5 d5 f2 00 b2 d8 43 0f 2a 52 df e3 ee e4 0a
       18 -11 -43 -14 0 -78 -40 67 15 42 82 -33 -29 -18 -28 10
0000b0 08 2d ee f6 63 f8 bf 7f ed b7 03 02 da e9 0a 56
       8 45 -18 -10 99 -8 -65 127 -19 -73 3 2 -38 -23 10 86
0000c0 e5 12 5f db f2 eb d9 ef 13 f6 f1 09 f6 06 04 ee
       -27 18 95 -37 -14 -21 -39 -17 19 -10 -15 9 -10 6 4 -18
0000d0 f6 df 36 26 f1 37 25 f8 0a 0b 25 fb b4 fc 0b fd
       -10 -33 54 38 -15 55 37 -8 10 11 37 -5 -76 -4 11 -3
0000e0 f8 eb 25 01 f4 0c 0a ff 18 06 36 29 35 ff 15 18
       -8 -21 37 1 -12 12 10 -1 24 6 54 41 53 -1 21 24
0000f0 17 e1 07 e8 ce fe a9 c8 c2 29 e3 e0 f6 29 2c ef
       23 -31 7 -24 -50 -2 -87 -56 -62 41 -29 -32 -10 41 44 -17

split_matmul_0_b_scale_0 f4 [10]
000000 e8 fc 9c 3c 79 92 8a 3c c5 b3 ad 3c 24 05 be 3c
       0.019163564 0.016915547 0.021203885 0.02319581
000010 56 64 c2 3c c4 d6 ca 3c 51 5d 9d 3c be eb 8d 3c
       0.023729485 0.024760611 0.019209536 0.017324325
000020 09 b3 b4 3c 08 4e 8c 3c
       0.022058027 0.017127052

split_matmul_0_b_zp_0 i1 [10]
000000 00 00 00 00 00 00 00 00 00 00
       0 0 0 0 0 0 0 0 0 0

split_matmul_0_b_0_0 i1 [64, 10]
000000 23 d2 ef 49 fc 2f c8 d0 e8 0d 05 42 d8 f3 e6 e7
       35 -46 -17 73 -4 47 -56 -48 -24 13 5 66 -40 -13 -26 -25
000010 d1 39 e6 62 e3 c9 02 f2 f0 eb 1a f2 7f e9 17 0a
       -47 57 -26 98 -29 -55 2 -14 -16 -21 26 -14 127 -23 23 10
000020 00 f2 04 ca d3 3d 15 0f f3 16 e9 ed 6d fa d5 32
       0 -14 4 -54 -45 61 21 15 -13 22 -23 -19 109 -6 -43 50
000030 ea ba fd e6 1c dd e8 7f e3 c4 f9 fc e5 e8 ca e9
       -22 -70 -3 -26 28 -35 -24 127 -29 -60 -7 -4 -27 -24 -54 -23
000040 69 f9 eb 63 f5 d0 dd c9 7f f4 2c 07 0d d5 d8 db
       105 -7 -21 99 -11 -48 -35 -55 127 -12 44 7 13 -43 -40 -37
000050 f7 03 bb 0b 34 14 f9 01 e8 0c cd f6 1a dc de f6
       -9 3 -69 11 52 20 -7 1 -24 12 -51 -10 26 -36 -34 -10
000060 7c 2c ef ee 21 e0 7f e2 d9 f9 ec 09 e1 fa dd f6
       124 44 -17 -18 33 -32 127 -30 -39 -7 -20 9 -31 -6 -35 -10
000070 0a de d2 7a e5 ef 0f fb cf 7f 25 f9 03 07 e1 e2
       10 -34 -46 122 -27 -17 15 -5 -49 127 37 -7 3 7 -31 -30
000080 ee e0 ec cc e5 02 7f f0 05 cc f6 08 3f e0 73 e3
       -18 -32 -20 -52 -27 2 127 -16 5 -52 -10 8 63 -32 115 -29
000090 03 e7 f3 c4 ef f0 f1 12 d1 0f e5 01 1b f2 cc 7e
       3 -25 -13 -60 -17 -16 -15 18 -47 15 -27 1 27 -14 -52 126
0000a0 db c6 10 15 26 4d f1 2b c9 bb e0 ef d7 f8 fc 10
       -37 -58 16 21 38 77 -15 43 -55 -69 -32 -17 -41 -8 -4 16
0000b0 ef e0 5d 1c 60 be c6 0c fa 26 e8 3c d5 f6 13 56
       -17 -32 93 28 96 -66 -58 12 -6 38 -24 60 -43 -10 19 86
0000c0 c5 0c ee f2 cc f1 1d 20 00 68 27 15 f1 f0 cd f1
       -59 12 -18 -14 -52 -15 29 32 0 104 39 21 -15 -16 -51 -15
0000d0 15 a5 53 3b e5 d8 da d7 f6 d7 22 3d 2f fc 3a f7
       21 -91 83 59 -27 -40 -38 -41 -10 -41 34 61 47 -4 58 -9
0000e0 ff dc 09 00 fc c3 1c f2 ee 0a d3 2a cb 12 37 dd
       -1 -36 9 0 -4 -61 28 -14 -18 10 -45 42 -53 18 55 -35
0000f0 e6 f9 e4 ef 0b 3b 49 df ea e4 29 2e 25 15 de e8
       -26 -7 -28 -17 11 59 73 -33 -22 -28 41 46 37 21 -34 -24
